…
 No checkpoint found at 20230628_adult/checkpoints-meta/checkpoint.pth. Returned the same state as input
INFO - run_lib.py - 2023-06-28 14:23:44,772 - train shape : (36178, 105)
INFO - run_lib.py - 2023-06-28 14:23:44,773 - eval.shape : (9044, 15)
INFO - run_lib.py - 2023-06-28 14:23:44,773 - batch size: 1000
INFO - run_lib.py - 2023-06-28 14:23:44,845 - raw data : Counter({0.0: 27217, 1.0: 8961})
INFO - run_lib.py - 2023-06-28 14:23:44,846 - DataParallel(
  (module): NCSNpp(
    (act): LeakyReLU(negative_slope=0.2)
    (all_modules): ModuleList(
      (0): GaussianFourierProjection()
      (1): Linear(in_features=128, out_features=256, bias=True)
      (2): Linear(in_features=256, out_features=256, bias=True)
      (3): ConcatSquashLinear(
        (_layer): Linear(in_features=105, out_features=256, bias=True)
        (_hyper_bias): Linear(in_features=1, out_features=256, bias=False)
        (_hyper_gate): Linear(in_features=1, out_features=256, bias=True)
      )
      (4): LeakyReLU(negative_slope=0.2)
      (5): ConcatSquashLinear(
        (_layer): Linear(in_features=361, out_features=512, bias=True)
        (_hyper_bias): Linear(in_features=1, out_features=512, bias=False)
        (_hyper_gate): Linear(in_features=1, out_features=512, bias=True)
      )
      (6): LeakyReLU(negative_slope=0.2)
      (7): ConcatSquashLinear(
        (_layer): Linear(in_features=873, out_features=1024, bias=True)
        (_hyper_bias): Linear(in_features=1, out_features=1024, bias=False)
        (_hyper_gate): Linear(in_features=1, out_features=1024, bias=True)
      )
      (8): LeakyReLU(negative_slope=0.2)
      (9): ConcatSquashLinear(
        (_layer): Linear(in_features=1897, out_features=1024, bias=True)
        (_hyper_bias): Linear(in_features=1, out_features=1024, bias=False)
        (_hyper_gate): Linear(in_features=1, out_features=1024, bias=True)
      )
      (10): LeakyReLU(negative_slope=0.2)
      (11): ConcatSquashLinear(
        (_layer): Linear(in_features=2921, out_features=512, bias=True)
        (_hyper_bias): Linear(in_features=1, out_features=512, bias=False)
        (_hyper_gate): Linear(in_features=1, out_features=512, bias=True)
      )
      (12): LeakyReLU(negative_slope=0.2)
      (13): ConcatSquashLinear(
        (_layer): Linear(in_features=3433, out_features=256, bias=True)
        (_hyper_bias): Linear(in_features=1, out_features=256, bias=False)
        (_hyper_gate): Linear(in_features=1, out_features=256, bias=True)
      )
      (14): LeakyReLU(negative_slope=0.2)
      (15): Linear(in_features=3689, out_features=105, bias=True)
    )
  )
)
INFO - run_lib.py - 2023-06-28 14:23:44,847 - Starting training loop at epoch 0.
INFO - run_lib.py - 2023-06-28 14:23:52,280 - epoch: 0, iter: 36, training_loss: 1.01913e+00
INFO - run_lib.py - 2023-06-28 14:24:49,948 - sampling data : Counter({0.0: 28286, 1.0: 7892})
INFO - run_lib.py - 2023-06-28 14:24:49,949 - epoch: 0, binary_f1: 0.18496484586262843
…
